AI-Snake-Game/model/model.pth (torch, 17216 bytes, 4 tensors)

linear1.weight f4 [256, 11]
00000000: 048b 873e 1833 023f dee1 673e 1219 b9bd
00000010: 5cfa 40bd 6dc4 a3bd be26 9b3d 52e3 863e
00000020: 0049 643e a9c7 833e 1e75 673e 2957 4cbe
00000030: 888a a3bd 0fa4 a1be 78a1 963d 080a 5dbe
00000040: 3fda 01be fba0 a93e 2e9f efbe 499f 023d
00000050: cc5b 7dbe 77f2 fcbe f475 b93e 0066 f8bc
00000060: ee91 0fbd a4a1 6abe 3734 14be a604 5d3e
00000070: 46ec be3e 9363 443e a515 303e 8425 81be
00000080: 4f6d d2be cf09 9fbd e2ad 303f 7419 aabe
00000090: 15e1 463e 2c5f f7bd 88f2 de38 96da c13d
000000a0: 220c 933e efca 193d 2ab8 44be 6243 47be
000000b0: 6e92 ddbd 6904 e13e f278 2bbe a072 f8be
000000c0: f1e5 f1bc 90a6 f3bb 2944 b0be 4ac6 bd3e
000000d0: e3d1 00be a78a b13d a173 d03c 6356 a4be
000000e0: c0fd a23d 49a2 c83e 5c99 20be 9119 83be
000000f0: ccc6 38be 9240 66be e765 783e eee6 933e
00000100: 8244 4b3e b3e5 dabc 6f0c e8be 7eb0 1fbe
00000110: a948 df3e 10b5 bebd a3e3 d5be eb12 e23d
00000120: a4e9 ba3d 0374 5ebe 59bd ffbd e9d1 633e
00000130: edb4 be3c cf14 ae3e 0791 183f 69bc aabe
00000140: a149 9e3e 1052 c9bd e81a f53d 1e8c acbd
00000150: db40 44bd e371 88be 5238 843d e8ea b73e
00000160: dab1 993e bfe0 b1bc 1713 d8be 9346 5a3d
00000170: a9a2 c53d 91c0 f3be aa81 75be be45 a8bd
00000180: 4cb2 593e d9de ce3e 8638 863e 6ad3 83be
00000190: 024f 0b3e f198 de3e b9a7 fd3c ac9a 51bd
000001a0: 3af4 89bc 821a 41bc cddc 0dbe 1990 da3d
000001b0: f9ed 503e ffdc 193e 0b25 513d 87d5 98be
000001c0: 240b 92be d756 8ebe a53f f03e ed3d 20be
000001d0: cef9 eb3e 11fe fabe 5c92 df3d 6950 1bbf
000001e0: 79b8 5c3e 8afc 38be 9c5e d7be 5dd7 033f
000001f0: 5b44 f0bd 29d5 403e 0030 a9be 73a3 de3e
00000200: 518f 35be 5ba9 e0be 1ad0 33be 75db ba3e
00000210: 2f31 073f db21 6a3d ca6a 813d 0559 bbbe
00000220: a402 dabe 7235 a33d acb3 57bc 08db 683e
00000230: ebf0 a23e b1d5 0ebe 5622 9bbc b364 293d
00000240: 4154 083f ab3e 613d d34e 14be 30bf 03bd
00000250: 7a9a 133e 8679 5cbe 10ee be3e 8867 5b3d
00000260: 25fa 1f3d 4e81 773e 6360 92be 2b98 e23d
00000270: d3e1 08bf e89d a7be f14f af3e 8e38 81be
00000280: 7a43 9a3e d572 e4be 5973 a83e 1379 95be
00000290: 246d e3bd 8bda cbbe 2d45 713e df93 923d
000002a0: 8f5c a33d 7068 2c3e 7908 e03d fec8 0dbf
000002b0: 50c9 dd3d 1a9e 513d 478d 3d3d c552 01bf
000002c0: c2d7 c33e b322 07bf 9c51 183f bbd0 533e
000002d0: 29c2 c7bd 5379 be3c a29b 243e 0269 9dbc
000002e0: 1b7a 323e f8d1 4b3d cf2b a2be 3ac7 1fbe
000002f0: 4af0 1abe f968 573e 38b2 d13e c9d7 a53e
00000300: e3b6 9cbe de6c b8bd 51b5 85be a442 9ebe
00000310: b95b ef3e 5ab3 873e cc7c aebe 095f 323f
00000320: d325 90be 4ca6 a1be a30b a6bd 88f0 47be
00000330: f4d7 5c3e d669 b0be 2d8f c43d 26b8 ac3e
00000340: 6271 a2bb 48d4 70be 4364 14bf 5b73 febe
00000350: 7e66 c3bb 0f6e 1fbe d246 533e 2f5f 6fbe
00000360: cc1f 853e ec5f 1e3e 7c85 46be 6e82 29bf
00000370: 4003 f5bd 72b6 613e 9f3e 83bd 09a8 8ebe
00000380: e92d 96be cd7b ba3e a650 b43e 7a66 69bd
00000390: 0297 4f3e 1059 ffbe a0c3 9bbe 481c 00be
000003a0: 200c b53e 33ca e53e 78cc c73d 22c2 d13d
000003b0: 4e04 353d d860 97bd 617c db3a 11a1 143e
000003c0: 2e94 b53d 62f5 b83d 1057 93bd 0942 ecbd
000003d0: 124e 6abe e5ea a5be d7a8 ab3e 67e5 bdbe
000003e0: 826b 883d 4892 ecbe 1e17 943e 0e1a c9be
000003f0: 8bb4 eebe 50c5 5a3d c7d9 2ebe ba18 0b3f
0.26473248 0.5085921 0.22644755 -0.09037985 -0.04711376 -0.079964496 0.07575749 0.26345307
0.22293472 0.25738266 0.2260327 -0.19955124 -0.07985407 -0.3157048 0.073550165 -0.21585858
-0.1268091 0.3313063 -0.46801132 0.031890187 -0.24742049 -0.49403736 0.36222804 -0.030322075
-0.03505128 -0.22913224 -0.14473043 0.21583804 0.37289637 0.1917861 0.17195757 -0.25223935
-0.4109902 -0.07765543 0.69015324 -0.33222544 0.194218 -0.120786995 0.0001063096 0.0946552
0.28720194 0.03754705 -0.19210878 -0.19459298 -0.10818945 0.43948677 -0.16745356 -0.48524952
-0.02952859 -0.0074356273 -0.34427002 0.37065345 -0.12580065 0.08669024 0.025445761 -0.32097158
0.07958555 0.39186314 -0.15683502 -0.25605443 -0.18044585 -0.22485569 0.24257623 0.28887123
0.19850352 -0.026720857 -0.45321986 -0.1559467 0.43610123 -0.09311879 -0.41775236 0.110387646
0.09126595 -0.21723942 -0.12487287 0.22248043 0.023279632 0.3400025 0.59596294 -0.3334687
0.3091555 -0.09830105 0.119680226 -0.08425163 -0.047913413 -0.2664939 0.06456055 0.35921407
0.30018502 -0.021713613 -0.42202064 0.05328996 0.096501656 -0.47607854 -0.23975244 -0.08216427
0.21259421 0.40404394 0.26215 -0.25747234 0.13604358 0.4347606 0.030963765 -0.051172897
-0.01684009 -0.011786105 -0.1385376 0.10672016 0.2040328 0.1502571 0.051060718 -0.29850408
-0.28524125 -0.2780063 0.46923557 -0.15648623 0.46089023 -0.49021962 0.10916588 -0.6066957
0.21554746 -0.18065086 -0.4206437 0.51500493 -0.11731788 0.18831314 -0.33044434 0.43484077
-0.17730452 -0.43879208 -0.17559853 0.36495557 0.52809423 0.057161193 0.063191965 -0.36591354
-0.4258014 0.07969178 -0.013165396 0.22739804 0.3182443 -0.13948704 -0.018937271 0.0413558
0.5325356 0.054991405 -0.14483194 -0.032164752 0.14414397 -0.21530733 0.37291002 0.053565532
0.039056916 0.2417042 -0.28589162 0.1106418 -0.5346958 -0.3273766 0.34240678 -0.2523846
0.30129606 -0.4461886 0.32900503 -0.29193935 -0.11104801 -0.39815173 0.23561545 0.071571104
0.079766385 0.16836715 0.10939116 -0.55384815 0.10829413 0.051176168 0.04627731 -0.5051692
0.38250548 -0.5278732 0.59499526 0.20685093 -0.0975383 0.023251211 0.16074994 -0.01921511
0.17429392 0.04976079 -0.31674048 -0.15603343 -0.15130726 0.21036138 0.40956283 0.32391194
-0.30608281 -0.0900514 -0.26114896 -0.30910218 0.46749666 0.26504022 -0.34079587 0.6967626
-0.28153858 -0.31572187 -0.08107688 -0.19525349 0.21566755 -0.34455746 0.09597621 0.33734244
-0.004957364 -0.23518479 -0.5796549 -0.49697384 -0.0059631458 -0.15569328 0.20632485 -0.23376153
0.26000822 0.15466279 -0.19386858 -0.66214645 -0.119635105 0.22042254 -0.064084284 -0.27862576
-0.29331902 0.36422578 0.3521778 -0.056982495 0.20272449 -0.49872637 -0.30422688 -0.12510788
0.35360813 0.44880828 0.09755796 0.10242106 0.04419356 -0.07391518 0.0016745442 0.14514567
0.08866154 0.09031178 -0.0719434 -0.11536033 -0.22881344 -0.32405773 0.33527252 -0.37089083
0.066611305 -0.46205354 0.28923887 -0.3927769 -0.46622118 0.053410828 -0.17075263 0.54334605

linear1.bias f4 [256]
00000000: 88a9 4abe 3ec6 2a3e edd3 033d 6fc1 11bd
00000010: a92f 5b3c 205a 4f3e ae65 803d 9230 90be
00000020: 7320 e13c ec17 1d3e 1200 503e 9220 b1bc
00000030: ff23 113d ae72 81be a9fc 263c 06a2 cf3e
00000040: 099a edbc 4790 38be f40f 243e a917 e83e
00000050: e63d 4f3d b45c c93d 8bb1 063e f221 a03d
00000060: c47d 30be a597 603c fc71 0f3f 49c2 4abe
00000070: 1ba0 ffbd cde4 47bd 00b6 ea3e e8f8 4dbe
00000080: bf38 193f 0c6e 25be 6bc1 c03d 0564 f9bd
00000090: ef07 19be 3996 11bc e41e 033f 7890 593b
000000a0: 0453 bd3d 60cc 2c3e e5dd cdbe 4bbf 603e
000000b0: 6ed8 92be dbde b8be 0e99 81be db78 d8bd
000000c0: 4fa3 973d 188c 27bd d177 643d 1c2f 913d
000000d0: a322 37be 81cc 973e fcda 923d 97c3 30be
000000e0: 69e9 ea3e 20be 38bc 6a1e c33a 11dd 81be
000000f0: 95ee 233e db0e 673d 9d6a b23e c24d f5bd
00000100: 94b9 22be 8ab5 833d 41fc 133e b9b2 173d
00000110: e1e5 40be 4687 823c a533 223e 3afe bf3a
00000120: 14e8 eebd 9dbb 8f3d 9b15 e93e afb0 fcbd
00000130: 38fc 9bbe 0600 62be 2f29 dfbd 1fe8 bd3e
00000140: d8f6 c3bd 68ff 04bd 88d4 65bd a99c b73c
00000150: 8390 3dbd 97b6 00bd e85d f93d 2c91 d0bd
00000160: 6caf 81be b0ed 263b aaa9 b6bd 220f 92be
00000170: a0bd a53d 6dc5 01be 7516 7f3d 055c 933d
00000180: b295 653e fe3f 94be 76c5 72be 3d72 34bd
00000190: b16f a33e 75a8 f93c d926 2bbd 9bfa cc3e
000001a0: ec6a 0fbe e7c4 ba3d 6d7b 16bd 6b57 e4be
000001b0: 9956 5ebc f883 8a3d d69a 763d 47df ebbc
000001c0: fc3a 83be 186d 96be 8302 35be 455b 7fbd
000001d0: f806 683d 50cb 9bbd d7eb 63be 1ace 9d3e
000001e0: 58a8 93be b4f9 a53e d265 883b d15f 57be
000001f0: 832c eb3d 62be b63b 5f94 b0bd f028 593d
00000200: 8944 44be 2834 b4bd 6638 b9be 9f85 7f3d
00000210: 4f37 ebbd 9849 6cbe 8a21 f03b 3e8c bbbd
00000220: 05e8 8bbd 99be 08be b7c3 4b3d d67b fd3d
00000230: fbf1 1abe 195e 703e 1902 58be 56bb acbe
00000240: 06b8 613e 55b4 3fbe fec7 98bc 77df 85be
00000250: a74a ed3e c831 26be 0965 c43e be7e 3ebe
00000260: 7215 0b3e 3efa f93c 48de 73bd 5896 4fbe
00000270: d0a1 8fbd 4365 17be b6cd 4fbe 3008 a6bd
00000280: 9855 99be 05b9 3abe 7d6f 9dbd e7e9 37be
00000290: 8938 95be 664e 193e f6f3 fabd 6e18 16bc
000002a0: f21f ca3c 5fdf 973e bb3c a2bd 270e 0cbd
000002b0: d6f8 4cbb 0b3e bd3e 86a2 373d f6d3 e8bd
000002c0: f60d d4bd ad1f 903c c5bf 82be 1d85 d83d
000002d0: 733f 923e d849 a9bc 57e4 283e 2002 94be
000002e0: 80ea c6bd 9d62 94be df0b 0ebe d779 a43c
000002f0: 9f46 693c 9fe2 5bbe 7569 853d 8d5c dabd
00000300: c57d a6bd e1e3 013b 77b9 d9be b564 87bd
00000310: 5c78 a5bc bdd9 b4be b1d8 30be 5dad 663d
00000320: c38e 8abe 351d 5dbe 87b5 6f3d 6803 47be
00000330: ddee 323c 98c5 8a3d 909a cc3e 70d6 23be
00000340: 2677 3b3e 47a0 973e 6cb2 a93c 6d8e 7b3e
00000350: af2c 06be dab7 9e3e 1af5 23be 2ce2 c9bd
00000360: 3f49 943d 3cdb 5f3d b16f bbbc 0673 00bd
00000370: 1de9 bbbd 7461 42be ff45 bebe e3c3 b1bd
00000380: 9b4a 50bc d23b 94be 33c1 303c c4f5 d1bd
00000390: cc80 80be 30d5 063e d8e0 ccbd d515 16be
000003a0: d701 a2be 67c1 ca3e 6767 113e 857b 8bbe
000003b0: 9ce1 1b3d d8ed 47be d505 9bbe 68e7 02be
000003c0: 329f bcbd 323b a53c 7cab 9c3e 86de 07be
000003d0: d480 84be 45c4 04be 40c2 7ebe 4542 543e
000003e0: 163e 8bbd cc3f 7e3d a474 fabd 2a23 82bd
000003f0: e5bd ffbc d812 57be 91cd 3dbe c543 3a3e
-0.19791234 0.16677186 0.03218453 -0.035584863 0.013378062 0.20249224 0.06269394 -0.28162056
0.027481293 0.15341157 0.20312527 -0.021621976 0.03543472 -0.25282806 0.010192075 0.40553302
-0.029004114 -0.18023787 0.1602171 0.4533055 0.05059614 0.09832135 0.13153665 0.078189746
-0.17235476 0.01370803 0.560333 -0.19800676 -0.124817096 -0.048802186 0.4584198 -0.20114481
0.5985221 -0.16155261 0.094118915 -0.1217728 -0.14944433 -0.0088859135 0.5121901 0.0033197682
0.092443496 0.16874838 -0.40208355 0.21947972 -0.28680748 -0.36107525 -0.25312084 -0.10569926
0.074041955 -0.04090509 0.05577833 0.070890635 -0.17884307 0.29648212 0.07170674 -0.17262112
0.45881203 -0.011275798 0.0014886383 -0.25363973 0.1600898 0.05641065 0.34846964 -0.11977722
-0.15891105 0.0643111 0.14451696 0.037035678 -0.18837692 0.015933644 0.15840013 0.0014647909
-0.11665359 0.07018206 0.45524296 -0.12338387 -0.30465865 -0.22070321 -0.10896527 0.37091157
-0.09568566 -0.032470137 -0.05611089 0.022413569 -0.046280395 -0.03142413 0.12176114 -0.10183939
-0.2532915 0.0025471263 -0.089190796 -0.2852717 0.08092809 -0.12672968 0.062277276 0.07195286
0.22420385 -0.28955072 -0.23708138 -0.04405426 0.3192115 0.030475834 -0.041785095 0.40034947
-0.14005631 0.091195874 -0.0367388 -0.44597945 -0.013570451 0.06763452 0.060206257 -0.02879299
-0.2563094 -0.29380107 -0.1767674 -0.0623429 0.05664727 -0.07607138 -0.22257935 0.30821306
-0.28839374 0.3241707 0.0041625286 -0.21032645 0.11483099 0.0055768946 -0.086220495 0.053017557
-0.19166769 -0.087990105 -0.3617584 0.06238329 -0.11485159 -0.23074949 0.007328217 -0.091576084
-0.068313636 -0.13353957 0.049747195 0.123771355 -0.1513137 0.23473395 -0.2109455 -0.33736676
0.22042856 -0.18721135 -0.018650051 -0.26147053 0.46346018 -0.16229928 0.38358334 -0.18603036
0.135824 0.030514833 -0.059538156 -0.20272195 -0.07013285 -0.14784722 -0.20293316 -0.081070304
-0.29948115 -0.18234642 -0.0768728 -0.1796032 -0.29144695 0.14971313 -0.12253563 -0.009161098
0.024673436 0.29662606 -0.0792174 -0.034193184 -0.0031276247 0.36961398 0.04483273 -0.11368553
-0.10354225 0.01759323 -0.25536934 0.10572264 0.28564033 -0.020665094 0.16493355 -0.2890787
-0.09712696 -0.28981486 -0.13871716 0.020077629 0.014238029 -0.21473168 0.06514255 -0.10662184
-0.081294574 0.0019819664 -0.4252431 -0.06611005 -0.020198993 -0.3532237 -0.17270161 0.056317676
-0.27062044 -0.21593173 0.058522727 -0.19434893 0.010921207 0.06775969 0.39961672 -0.1599977
0.1830717 0.2961447 0.020714961 0.2456605 -0.13102983 0.30999643 -0.16011468 -0.09857592
0.07240533 0.054652438 -0.022880407 -0.031359695 -0.09175322 -0.18982488 -0.37162778 -0.086799406
-0.0127131 -0.2895189 0.01078825 -0.10251954 -0.25098264 0.13167262 -0.10003823 -0.14656766
-0.3164203 0.3960068 0.14199601 -0.27242675 0.038056955 -0.19524324 -0.30277887 -0.12783587
-0.092100516 0.020169828 0.30599582 -0.1326848 -0.25879538 -0.12965496 -0.24878788 0.20728405
-0.06798951 0.06207256 -0.12229279 -0.06354363 -0.031218478 -0.21003282 -0.18535449 0.18189915

linear2.weight f4 [3, 256]
00000000: 2f31 02be aacc 9ebe 5c49 4cbe 76f3 3e3e
00000010: 2aae 96bd e336 eb3c 153d c23d c0a7 6abe
00000020: 4e25 42be 2b89 293d 6e60 ed3e 44e1 a63e
00000030: baf3 eabe 130a 09be 0e69 7c3e 13db d93e
00000040: 0dd0 f43c 7616 80be ec61 0b3e 03b8 b93e
00000050: eacd 60be 4637 7c3d 2b9d a43e ecd7 203f
00000060: 5920 a1bd 3533 d43e a7b5 963e bb6d 83bd
00000070: eb54 90be fed0 aebc 1895 9a3e 70b8 69be
00000080: f451 b93e 044e 47be 3942 163d 16cb eabc
00000090: 21ed 943b 912e e3bc 8b3a ea3e 0222 b6be
000000a0: 3755 fc3c 4aa3 8f3d 6b92 33be 78aa c33e
000000b0: c288 4b3d 8068 2bbe 5334 76be 3265 c93e
000000c0: 72d5 073d 62a1 b7bc 70a6 933b fc64 213b
000000d0: bd91 afbd 133e 633e a213 f4be 1070 cabd
000000e0: a7dc ad3e 53f8 c43e a8a0 ae3e 9399 14be
000000f0: 5ede 823e 3ddb 9cbd be61 813e 8432 dabd
00000100: fa7a 853e 0cc6 173e 94fa 073d 58e9 c8bc
00000110: dd9e 7abd caee 7d3d 84b8 4e3d 7c60 4ebb
00000120: f15e e4bd 53aa e8be a41e c53e 113e 99be
00000130: 2b27 d3be 2f6f 47be 012b d8be b176 a73e
00000140: 9610 9a3e 2d15 03bf 9f37 953e 18df 1cbe
00000150: 5992 bebd 0d1c 593d f133 c03e 0baa 27bd
00000160: eaaa 99be 638c 8d3e 4c1b 5c3e 93b9 29bc
00000170: 80fc bfbc d7ff be3c 245c 75bd 3a4d 01be
00000180: 14a5 273e 37ea ac3c 4f42 03bd a516 56be
00000190: d6c4 173e 2952 9e3d 3a37 b4be 13f1 a13e
000001a0: f132 23be fffd 8c3e 73e6 2b3e 333d 013e
000001b0: 88fa f9be 23d3 023f dac4 21be b24a d53d
000001c0: 0e0c 6abd d369 b3bc dc46 27bd 27a5 bcbe
000001d0: 2907 babe 05ea b33d 3ce6 adbc 83a3 933e
000001e0: 73f4 5dbe 6f87 5f3e 8383 65be ad16 81bd
000001f0: 6dc1 923d e846 213e 26a1 5ebd 6cc7 de3e
00000200: d1d1 47be 03a1 89be 88ae 8abe 5579 77be
00000210: d3c9 e5bd e8e5 aabe 5912 40bc 9cfb b7be
00000220: 9fd9 cdbe 82ea ab3e c6bd 97bd 6427 80bd
00000230: 306e a4bd 5fd3 f33e 8a29 963e 3c4d 413c
00000240: 6005 563e 843e d2bd 4bae 05be 0f71 00be
00000250: c59f 933e 20af 96be 9e70 aa3e 0bd6 30be
00000260: 7d1e 76bc 5ee7 e23e 89cf 79be 3f71 b9bd
00000270: 69fa a539 672c a2be 6fc4 9bbd e9f3 5bbe
00000280: cb3e 50be 2dc4 64be 437f 4cbe 54eb cfbc
00000290: adb4 25bf 1db4 e73d 50c7 59be 3764 893e
000002a0: 6041 d3bc 4a84 063e e0d2 a7bd 6e2e 8a3e
000002b0: bdf4 0dbf cae8 7d3e 8707 3a3e 4a98 29bf
000002c0: 35e4 00bf a817 07be 37ef 99be 71cc d63e
000002d0: de27 a83e 29a8 debe dad1 dc3d 08e2 63bd
000002e0: 8178 1ebe 16e2 acbe 750d 0ebf 6d34 06be
000002f0: 0c40 b9bd 26a9 83bc 6d78 813e 10d0 f0be
00000300: d62f 64be c696 a93c 113a ee3d 31d3 bfbe
00000310: fb42 03bf 275c 76be 8f38 11bf 5992 053e
00000320: 7602 36be 2eb6 0dbe 5903 c1bb 8ad2 8bbe
00000330: 5aab 44bd b9c5 c53e 538c 743e e06a cbbb
00000340: 6eb7 16be 1f70 953e 32b4 0d3b 9840 b93d
00000350: 491b 47be 66aa 163e 88d5 f839 7d77 0bbf
00000360: 373b aabe aad8 15bd 9d0e b7be 2195 e7be
00000370: 77d9 5fbe abfb 92be 4636 a6be b4d6 02bf
00000380: 9409 9ebe 0409 f1ba 56de f43c 1362 dfbe
00000390: df9d a13c ff61 01bf 4c66 5f3d cdd1 053d
000003a0: dc51 85bb bd3e 933e bd58 403e 7f46 42be
000003b0: f7b5 8fbe c68e 10be 755d c0bd befc 8b3d
000003c0: c671 f0be ec6f 8d3e 5660 733e f73d aabe
000003d0: 1d16 c2be d082 00be 97a5 32be 2135 3d3d
000003e0: 746a e0be 1188 d2be 82b0 b8bd 8d7f 663e
000003f0: 2e7e bbbe 93c9 e8bd 4ecf e5be 1cdb 8c3d
-0.12714075 -0.3101552 -0.1994986 0.1864756 -0.07357438 0.028712695 0.09484307 -0.22915554
-0.18959543 0.04139058 0.46362633 0.3259374 -0.45889074 -0.1338275 0.2464945 0.42549953
0.029884363 -0.25017136 0.13611573 0.36273202 -0.2195355 0.06157615 0.3215116 0.6282947
-0.07867498 0.41445318 0.29435465 -0.06417414 -0.28189787 -0.02133989 0.30191875 -0.22824264
0.36195338 -0.19463354 0.03668425 -0.028661292 0.0045448695 -0.027732166 0.4574779 -0.3557282
0.030802352 0.07013567 -0.17536323 0.38215995 0.04969097 -0.16739082 -0.24043398 0.39335018
0.03316254 -0.02241582 0.004505925 0.0024626842 -0.08572719 0.22191648 -0.4767123 -0.098846555
0.33957407 0.38470706 0.34106946 -0.14511709 0.25560278 -0.07659004 0.25269884 -0.10654166
0.26070386 0.14821643 0.033197954 -0.02452533 -0.06118666 0.061995305 0.050468937 -0.0031490615
-0.11150921 -0.45442447 0.3849994 -0.29930165 -0.4124082 -0.19476007 -0.4222031 0.32707742
0.3009078 -0.51204187 0.29143998 -0.15319479 -0.09305257 0.053005267 0.37539628 -0.04093365
-0.3001321 0.2764617 0.21494788 -0.010359186 -0.023435831 0.023315353 -0.059902325 -0.12627116
0.16371566 0.021107776 -0.03204566 -0.20907076 0.1482118 0.077305146 -0.35198385 0.31629238
-0.15937401 0.27537534 0.16787128 0.12621002 -0.48823953 0.5110342 -0.15797749 0.104146376
-0.057140402 -0.021901047 -0.04083906 -0.3684475 -0.36333588 0.0878487 -0.021227948 0.28835687
-0.21675281 0.21829008 -0.22413449 -0.06303153 0.07165799 0.15749705 -0.054352902 0.43511522
-0.19513632 -0.26880655 -0.27086282 -0.24167378 -0.112201355 -0.3337853 -0.011723124 -0.3593415
-0.40205094 0.33577353 -0.07409243 -0.06257513 -0.08028829 0.476222 0.29328567 0.011798199
0.20900488 -0.1026583 -0.13054769 -0.12543128 0.28832832 -0.29430485 0.33289045 -0.17269151
-0.015021917 0.44317144 -0.24395575 -0.09054803 0.00031657823 -0.316745 -0.07605826 -0.21479763
-0.20336454 -0.2234046 -0.19970421 -0.025380768 -0.64728814 0.11313651 -0.21267438 0.2683427
-0.02578801 0.13136402 -0.08194518 0.26988548 -0.55451566 0.24795833 0.18166934 -0.66248
-0.50348216 -0.13192618 -0.3006532 0.4195285 0.32842916 -0.4348767 0.107822135 -0.055635482
-0.15475656 -0.3376624 -0.55489284 -0.13105936 -0.09045419 -0.016071867 0.2528719 -0.4703374
-0.22283873 0.020701777 0.11632169 -0.37465814 -0.5127408 -0.24058591 -0.56726927 0.13044108
-0.17774376 -0.13839027 -0.0058902916 -0.27309066 -0.048014976 0.38627413 0.23881654 -0.006207809
-0.1471841 0.29187104 0.0021622297 0.090455234 -0.19444002 0.1471344 0.0004746134 -0.544792
-0.33248302 -0.03658358 -0.35753337 -0.45230964 -0.218603 -0.28707632 -0.32463282 -0.5110886
-0.30866683 -0.0018389528 0.029891174 -0.43629512 0.0197286 -0.50540155 0.054540917 0.032670785
-0.0040685963 0.28758803 0.18783851 -0.18972205 -0.28068516 -0.14116964 -0.093928255 0.06835316
-0.46961802 0.27624452 0.23767218 -0.332504 -0.37907496 -0.12549901 -0.1744598 0.046193246
-0.43831217 -0.41119435 -0.09018041 0.22509594 -0.36619705 -0.11366572 -0.44884723 0.06877729

linear2.bias f4 [3]
00000000: c591 2a3e ebe2 a53c d901 8a3c
0.16657169 0.020249804 0.016846584
